model_v1.pkl (torch, 192988 bytes, 38 tensors)

weight f4 [16, 8]
000000 80 8c 88 3b b7 20 92 bc f6 9f 92 bb 30 0a 61 ba
       0.0041671395 -0.017837865 -0.0044746352 -0.0008584587
000010 a0 ff 2d 3c ab 9b 19 bc e3 2d 3e 3b 47 3f 41 3c
       0.010620028 -0.009375493 0.002901905 0.011794872
000020 bb 3d b2 bd 8d 2d 4e be 0d 41 7c 3d 1a 66 1a 3d
       -0.087031804 -0.20134564 0.061585475 0.037695028
000030 d1 71 26 3c cb f0 aa bb 9d 34 0b 3d 7b 75 5b 3d
       0.010158972 -0.005216693 0.033985723 0.053578835
000040 87 d8 84 3c 54 ac da bc 40 bc 09 bd 19 b5 4f bd
       0.01621653 -0.0266935 -0.033626795 -0.050709818
000050 27 5b ab bc 0f cc c7 bd b6 c4 ae bd ee af 9e 3c
       -0.020917488 -0.09755718 -0.085336134 0.019371
000060 68 c5 59 bc 58 9e 84 3d ed 66 ad 3d f6 08 f4 bc
       -0.013291694 0.06475514 0.08466897 -0.02978943
000070 49 14 42 bd d7 c5 d6 3d d2 be 8b bc 5e 6e 6a 3d
       -0.047382627 0.10486954 -0.017058764 0.05723416
000080 18 0d a3 bd f2 02 1e 3c 64 cd 20 3e 05 59 8d bb
       -0.07961482 0.009644257 0.1570335 -0.0043135905
000090 46 b0 fe bc e4 d3 6a 3d 76 84 5a 3d 16 da 8e 3d
       -0.031089913 0.05733098 0.05334898 0.0697519
0000a0 2c cd 91 3b 13 bc 59 bd f8 94 50 bd 77 9c f0 bc
       0.004449507 -0.053157877 -0.050923318 -0.029371483
0000b0 97 11 9b bc c1 29 7d bd 95 0b c4 bd a2 14 1f 3d
       -0.018929286 -0.061807398 -0.095725216 0.038838036
0000c0 0a 2f 08 3d b1 c8 3f 3d 56 3c 87 bd 5c f8 23 3d
       0.033247985 0.046822254 -0.06603305 0.040031776
0000d0 52 10 e4 3c 12 ec d7 3b 7c 3f 35 3d 78 13 50 bd
       0.027839813 0.006589421 0.044249997 -0.050799817
0000e0 75 14 c9 ba 97 7a 68 3d f0 74 9c bc c8 fd c1 bc
       -0.001534118 0.056757536 -0.019098729 -0.023680583
0000f0 aa 53 be bc d9 42 2b bd 00 23 2b bd de 19 e9 bc
       -0.023233254 -0.041811798 -0.041781425 -0.028454717
000100 24 d7 f9 3c 8b b4 97 3d ae a8 d1 3c b2 94 9c bd
       0.030498095 0.07407483 0.025593128 -0.07645549
000110 88 be ca 3d 5f b4 98 3e 3d 84 6d 3d af 9f 94 3c
       0.09899622 0.29825112 0.05798744 0.01814255
000120 9b dd 92 3d 57 b7 08 3c 5d 44 9f bd 8b 43 a4 bc
       0.07171174 0.008344493 -0.07776711 -0.020051738
000130 81 4c c1 3d c9 1b ce 3c ff 83 fb bc 3f 8b fd bc
       0.0943842 0.025159733 -0.03070259 -0.030950187
000140 2f 39 65 bd 2f e3 f7 bd ac 18 9d 3b 60 cd 0e 3e
       -0.055962738 -0.12103879 0.004794201 0.13945532
000150 a7 22 5c 3e aa fb ce 3d b4 18 f4 3d 8d b5 21 be
       0.21497594 0.10106595 0.11918774 -0.15791912
000160 26 5c a1 3b b8 81 88 bc 7b 03 b6 bc e7 24 01 3d
       0.004924315 -0.016663417 -0.022218456 0.031529333
000170 5b a4 55 3d ad 29 6e bd 99 6d cc 3c b8 3a a5 bc
       0.052158695 -0.058145214 0.024954604 -0.0201696
000180 52 73 d4 3d 19 27 f0 3d d0 72 e4 bc 00 0f 1c be
       0.10373558 0.11726207 -0.027886778 -0.15240097
000190 e7 ea da bd 13 14 32 3e 0a 2a 32 bd 30 ca 25 bc
       -0.10689335 0.1739047 -0.043497123 -0.010119006
0001a0 ac d4 7c bd 26 a3 94 3d 56 1a 7d 3c 70 41 87 3d
       -0.061726257 0.072576806 0.0154481735 0.06604278
0001b0 df ef c8 3b 1b ab 25 bd da 70 6d 3c 27 3c de bc
       0.0061321105 -0.040446382 0.014492238 -0.027128292
0001c0 d4 9a 55 bd 39 42 25 3e d3 e4 f7 3c 4e 77 53 3d
       -0.05214961 0.16138543 0.03026048 0.05162745
0001d0 39 83 de bd 22 51 f1 bd 79 86 59 bc 5e b9 7e bd
       -0.108648725 -0.11783053 -0.01327669 -0.0621885
0001e0 85 f5 2f bb d2 6b cc 3b 4e f4 3c 3c 70 74 86 3b
       -0.0026849222 0.006238439 0.011532856 0.004103236
0001f0 34 03 58 bc 08 b8 05 bc a1 df 93 3b 1f f9 8d 3d
       -0.013184357 -0.008161552 0.0045127426 0.06932282

weight f4 [16, 8]
000000 1a 14 30 bc 84 f1 0b 3b 5e ba 74 bc 6d 10 3a 3c
       -0.01074698 0.0021353671 -0.0149370115 0.011356455
000010 1a 96 63 bb c1 1d 2b 3c 48 dd eb 3a be 08 1e 3a
       -0.0034726919 0.010444106 0.0017995024 0.00060285244
000020 ef c5 a4 3d 64 f4 a7 bd 04 f3 e8 bc 86 bb 47 3d
       0.08045565 -0.08200911 -0.028436191 0.04876282
000030 1c c8 d2 3c c8 38 5e be a5 f4 9e bd 04 63 b7 3d
       0.025730185 -0.21701348 -0.07761506 0.089544326
000040 0d 8c 83 bd 0f 47 de 3d f3 0c 28 3c 4f 4e 79 bd
       -0.06423197 0.10853397 0.010256994 -0.060865697
000050 7e 96 c4 bc f3 a0 f7 3d d9 17 d7 3c 17 5f 0b be
       -0.023997542 0.120912455 0.026256489 -0.13610493
000060 0f ab 97 3d 9c e3 35 bd 2d 85 71 bc ad e0 eb bc
       0.07405674 -0.04440652 -0.014741224 -0.028793657
000070 f6 79 51 bc ce ef d6 3a 34 59 22 bd 90 fb 04 3e
       -0.012785425 0.0016398372 -0.039635852 0.12986588
000080 43 f7 a8 bd b9 50 a0 3d 46 92 16 3c ee 2e 8c bc
       -0.082502864 0.078278966 0.009190148 -0.017112222
000090 db a3 ff 3c 44 0a 46 3c fd a1 9f 3c c8 5f 81 3c
       0.031206062 0.012087408 0.019486422 0.015792742
0000a0 70 56 14 be 15 d3 be 3a 18 38 f5 3c ad 11 ba 3d
       -0.14486098 0.0014558757 0.029933974 0.09085403
0000b0 38 e0 b3 bd 8f cf f9 3c 59 aa f3 3a b3 fc 38 be
       -0.08783001 0.03049448 0.0018590196 -0.18065147
0000c0 ce 9b f6 3d 34 08 e8 bd 51 8f 4d bd 9f ca 44 bc
       0.12041436 -0.113296896 -0.050185505 -0.012011199
0000d0 47 ae 1c 3d 51 5b a5 bd a6 b8 d3 bc ac 22 c5 3b
       0.03825214 -0.08074058 -0.025844883 0.006016096
0000e0 47 77 b1 3b 65 91 3e bd 23 18 85 bd 62 73 a1 bd
       0.0054158303 -0.046525378 -0.06498744 -0.07883336
0000f0 81 73 ff 3d 07 7b 57 bd 39 25 9c 3c 52 ec c8 3c
       0.124732025 -0.052607562 0.019060718 0.024526749
000100 94 13 df b9 8f b3 1a 3d fb bb 58 bd 83 6e 78 bb
       -0.0004254846 0.037768897 -0.052913647 -0.0037907667
000110 ef b8 0b bd 74 f3 8d 3d 2a d7 66 3d 29 4f fa bb
       -0.034111913 0.069312006 0.05635754 -0.007638831
000120 8f 1d dd 3c 06 9b cc 3d 00 f6 87 3d bf a1 c0 bd
       0.026991634 0.09990506 0.06638718 -0.094058506
000130 b8 6b 53 bd c6 f7 25 3e ec a4 6e bb be 6f 9a 3d
       -0.0516164 0.162078 -0.003641422 0.075408444
000140 cd aa bb bc 7d fb 9d bd 83 1b 3b 3c 31 c9 0a 3e
       -0.022908593 -0.07713983 0.0114201335 0.13553311
000150 00 f1 ad bd 78 9f 76 3c 43 91 18 bc 0a 08 e2 bc
       -0.08493233 0.015052669 -0.009311977 -0.027591724
000160 79 a4 ac bc 8d 63 86 bd eb 36 21 bd 21 c6 b5 bd
       -0.02107452 -0.065619566 -0.039359014 -0.08875681
000170 0b 8c 74 bd 65 dc 38 bd 6b 95 17 be 83 a5 a1 bd
       -0.059703868 -0.04513206 -0.14803092 -0.07892897
000180 f5 33 46 bd 76 86 bc 3d a5 42 5e 3d e9 27 9f bc
       -0.048389394 0.09205334 0.054262776 -0.01942821
000190 70 81 f4 3c af 2a fb 3c 51 9c ad 3d 3c 7f 52 bd
       0.029846877 0.030660002 0.084770806 -0.05139087
0001a0 fe 47 23 3d 98 a0 d7 bc c8 e1 34 3c 8c 6f 93 bd
       0.03986358 -0.026321694 0.011040159 -0.0719901
0001b0 d2 f6 e9 3c dd ee 57 bd 88 47 0b be 11 69 e3 3c
       0.028560076 -0.052718032 -0.13601506 0.02776006
0001c0 11 90 ef bc e0 fb e2 bd 68 a4 ff bc 10 d4 8d 3d
       -0.0292435 -0.110831976 -0.031206325 0.06925213
0001d0 26 41 f6 3b fd 1b 07 be c5 76 5c bb 84 0e ce 3d
       0.0075150905 -0.1319427 -0.0033640128 0.100613624
0001e0 bf de 0e bc 95 2e a2 bb 50 62 72 3c da 48 cb 3d
       -0.008720099 -0.0049494007 0.014793947 0.09926005
0001f0 de a9 ad bd e3 f6 e3 bc fa 87 ad 3b fc a4 26 bd
       -0.08479665 -0.027827686 0.0052957507 -0.040684685

weight f4 [3, 3]
000000 e3 44 b4 3b cb b3 27 bb 45 af 6a 3c ea af a1 3c
       0.005501376 -0.0025589343 0.014324014 0.019737203
000010 0a aa b2 3d e9 f3 65 bd 08 03 6f 3d 37 ef b2 bc
       0.087238386 -0.056140814 0.0583525 -0.021842582
000020 9e 2a 93 bc
       -0.017964657

weight f4 [3, 3]
000000 48 b7 97 3b 2b 9c 36 bc 6a 30 27 3c 32 27 26 3d
       0.004630003 -0.011145632 0.010204414 0.040564723
000010 78 63 fd bc ac 41 85 3d 28 5a 97 3d a1 b8 17 bd
       -0.03093122 0.065066665 0.07390243 -0.03704131
000020 ec 65 20 3d
       0.0391597

weight f4 [3, 3]
000000 fc a3 c4 bb a1 58 6d ba 9a bf e4 bb 47 5f 44 bd
       -0.006000994 -0.0009054039 -0.0069808485 -0.047942426
000010 4e 27 65 bd 8d 7a 2f 3c 1a 02 46 3c 7a a8 fb bc
       -0.055945687 0.010710371 0.012085462 -0.030719984
000020 3a dc 64 bd
       -0.055874087

weight f4 [3]
000000 5b 34 7e 3f 78 0d 81 3f 9e 11 76 3f
       0.9929864 1.0082235 0.9612063

bias f4 [3]
000000 81 78 84 bd e4 ec f1 bc 70 88 c8 bd
       -0.06468297 -0.029531904 -0.097916484

running_mean f4 [3]
000000 0e 93 bd 3c 60 0c 58 bd 34 02 5d bd
       0.02314141 -0.052746177 -0.05395718

running_var f4 [3]
000000 c7 1d 69 3f 0b 4f 61 3f 9d 81 58 3f
       0.9106106 0.88011235 0.84572774

weight f4 [200, 28]
000000 30 6b 22 3e 21 4b 31 3e f5 35 c0 bd c0 1d bf bd
       0.15861201 0.17313816 -0.093852915 -0.09331846
000010 c8 c6 4c bd 6c 6d 5b 3d 35 f0 12 be 1b 2f 81 bd
       -0.04999426 0.05357115 -0.14349444 -0.06307813
000020 c6 c5 d0 3d 53 d3 6a 3e 06 bf 22 3e 76 cf 49 be
       0.10193972 0.22932176 0.15893182 -0.19708046
000030 f3 3a 6d bd b5 3e 8c 3e a4 c2 d5 3d b6 a2 1d 3e
       -0.057917546 0.27391592 0.104375154 0.153941
000040 08 da 10 3d 9a 46 24 be 7c 0f c3 bd 52 c6 51 be
       0.03536418 -0.16042557 -0.09524438 -0.2048581
000050 8b 76 0e be a4 1a 38 3d 03 07 3b 3d de b2 17 be
       -0.13912408 0.04494728 0.045660984 -0.14814326
000060 4b 6e 04 3e 58 63 9a bd 9d 2a 24 3d b3 6a e9 3d
       0.12932698 -0.075384796 0.0400797 0.113973044
000070 ad ad 52 be 4b d7 40 be 5f 63 34 3e 61 ba 23 3e
       -0.20574065 -0.18832128 0.17616032 0.15989067
000080 73 df c2 3d ed 5d 86 3d 5f a3 6d 3e d7 87 0f 3e
       0.09515276 0.06560884 0.23206852 0.14016663
000090 ef 9e 82 3d b9 ec 05 3c ac 80 4b be 9b 81 d5 3d
       0.063779704 0.008174115 -0.19873303 0.10425111
0000a0 dd ad f3 bb 13 2d d2 3d da 1b e4 3d 5f 04 17 3e
       -0.0074364976 0.102625035 0.11138125 0.14747761
0000b0 9c 11 1d bc 4d 06 22 be 83 49 19 3e aa 7a 72 be
       -0.009586718 -0.15822716 0.14969449 -0.23679605
0000c0 49 79 b8 bd a4 e1 92 be d4 6f b1 bd ac e7 ab bd
       -0.09007508 -0.28687775 -0.08663908 -0.08393797
0000d0 a5 78 80 bc a2 d6 b2 3d 7b 2b d0 bd ce a2 c2 3d
       -0.015682528 0.08732344 -0.10164543 0.09503709
0000e0 01 f9 d4 3d 8e 46 8d 3e 2f 67 11 3d ab 28 ad 3c
       0.10399056 0.2759289 0.035498794 0.021137556
0000f0 48 35 bf bc 15 65 b9 3e e6 f0 6a ba d5 51 99 3e
       -0.023340836 0.36209932 -0.0008962288 0.29945245
000100 e6 19 88 3d 78 ef 76 3d 87 ed 4f 3e 90 e0 61 be
       0.06645565 0.06028697 0.20305453 -0.2205832
000110 ac ee d3 3b fb 38 ad 3d 28 08 16 be a9 d7 13 3d
       0.006467661 0.08458134 -0.14651549 0.03609434
000120 ff 8e 19 be 62 63 2c 3e 1d cd 7c bd 16 79 38 3e
       -0.14995955 0.16834787 -0.06171905 0.1801494
000130 82 5a 2d bb fc 30 f7 bc 35 3e 41 bd ee dd 0f 3e
       -0.0026451652 -0.030174725 -0.047178466 0.14049503
000140 11 33 21 3e 6d b0 1e 3c f6 f7 26 3e f8 cb c4 3d
       0.15742137 0.009685618 0.16305527 0.096092165
000150 a9 4d 75 3e 44 53 eb 3d 6c ae 39 3b d4 58 59 3d
       0.23955406 0.11490491 0.0028332723 0.05306323
000160 92 8f b2 3d ed 58 29 bd 98 c0 53 3e 99 0e be 3d
       0.0871879 -0.04134457 0.20678937 0.09280128
000170 93 24 84 3d 79 48 bb bd e1 f0 6a 3d c5 ce b0 3d
       0.064522885 -0.091446824 0.057358626 0.08633188
000180 39 2d 4c bd 2f 42 ac 3e b1 83 60 3e b6 33 bd bd
       -0.049847815 0.33644244 0.21925236 -0.09238379
000190 52 86 b0 3d 4c 3b d9 bd 6e f6 54 3d d7 7b a9 bd
       0.086193696 -0.10607013 0.051992826 -0.08275574
0001a0 2f a3 b1 3d 8d 29 fe 3d 0e 47 b8 3d 16 c0 08 3e
       0.08673703 0.12410269 0.089979276 0.13354525
0001b0 23 58 17 3b 90 dc 5a 3e 69 4e 9c 3d fc 08 80 bd
       0.0023093305 0.213732 0.07632143 -0.06251714
0001c0 91 fd 8d 3e f5 90 ef 3d c8 ca 35 3e 12 88 37 bc
       0.27732518 0.1169757 0.17753136 -0.011201875
0001d0 51 8e 71 be a7 07 b8 3e cf 7f 4b 3d 5c 3b 53 3e
       -0.23589446 0.35943338 0.049682435 0.20628113
0001e0 8b 40 a8 bd 7b d7 eb bd 7a 1f 96 3d d3 29 71 3d
       -0.082154356 -0.11515709 0.073302224 0.058877777
0001f0 e5 01 05 bd 5d b5 fc 3d 0b 5a 19 3e 46 9c 51 be
       -0.03247251 0.1233928 0.14975755 -0.2046977
000200 35 3d 1e 3e ee 44 49 be de f1 91 bd 7f 63 8b 3d
       0.15453036 -0.19655201 -0.07126211 0.06806087
000210 ec 92 25 3e f5 8c 5a 3d 4a 2c f9 bd c4 5c 05 3d
       0.16169327 0.053357083 -0.121666506 0.03255917
000220 b5 ba 12 3e c5 21 23 bd 46 27 59 3e 43 65 5e 3d
       0.14329036 -0.039827127 0.21206388 0.05429579
000230 57 79 2c 3c 36 df 80 bd 69 00 fb bd 81 ba d6 bd
       0.010526977 -0.06292574 -0.122559376 -0.104847915
000240 0a 55 04 3d b5 58 a0 bd df 48 16 be ad 1b 29 be
       0.032307662 -0.078294195 -0.14676236 -0.16514464
000250 10 07 ed 3d 5e ba 7c 3e bf 85 14 3e eb 9d 11 be
       0.11573613 0.24680468 0.14504145 -0.14220397
000260 17 0e 66 bd ca fa e2 bd 58 29 dc 3d e8 86 3c be
       -0.05616578 -0.110829905 0.10750073 -0.18410838
000270 de c3 3e ba ee 23 23 3e fe 3a 2b bd ca 6f bc bd
       -0.0007277111 0.15931675 -0.041804306 -0.092010096
000280 31 14 c5 3d 65 67 b3 bd 67 51 19 3e 87 28 04 3e
       0.09622992 -0.08759955 0.14972459 0.12906085
000290 c1 49 e1 bc 1f df 58 be 74 29 b6 3d bd bd dc bd
       -0.027500989 -0.21178864 0.08894625 -0.10778377
0002a0 13 80 37 be 7e 43 9c bd 5c ad 6c 3e 4c 53 0d be
       -0.1791995 -0.076300606 0.23113006 -0.13801306
0002b0 f7 d0 51 be fc 55 d9 bd 1f 79 d2 bd 37 d2 49 3e
       -0.2048987 -0.10612103 -0.10277008 0.19709097
0002c0 08 ae 0f 3e 16 e2 b8 be 28 30 e5 bd 56 81 5e bd
       0.14031231 -0.3610999 -0.11190826 -0.054322563
0002d0 23 56 67 3e c2 a0 7c be aa b1 c1 3d 69 a5 02 be
       0.22591452 -0.24670699 0.09457715 -0.12758411
0002e0 b9 00 48 be e6 79 60 be 22 8a 8e 3d af 6c 39 be
       -0.19531526 -0.219215 0.069599405 -0.18107866
0002f0 37 82 2e bb 52 e0 3f be db 31 91 3d 8a 68 90 3d
       -0.0026627907 -0.18737915 0.07089587 0.07051189
000300 de 7c 27 be 04 65 c3 bd 52 45 29 be cd 8b b8 3d
       -0.16356227 -0.095407516 -0.1653035 0.0901104
000310 4c 3d 59 bd fb 0a 3a bd f7 79 1d 3d 49 29 05 be
       -0.053036973 -0.045420628 0.038446393 -0.1300403
000320 3a 2a a7 3d fa 43 dc 3d bf 14 33 be f5 3a 4e bd
       0.08162351 0.10755153 -0.17488383 -0.050349195
000330 64 ec a2 bd 22 3f 97 bd 5d 16 44 be a9 46 b1 bc
       -0.07955244 -0.073850885 -0.19149156 -0.021640139
000340 85 e1 9a 3e 0e a4 bb bd e3 05 1a b9 8f 5a 9e 3c
       0.30250183 -0.0916215 -0.00014688777 0.019330291
000350 77 9d d1 3d 45 eb 90 3d 7e ae e6 bd 1e cb ea bd
       0.10235112 0.07076124 -0.112637505 -0.11464523
000360 58 7d bf 3d dd dc 2b 3e d3 8a f5 3d 86 7e a8 bd
       0.09350079 0.16783471 0.11989369 -0.082272574
000370 ca 0e a7 bd 6a a1 14 3e 9f e2 3e bd 34 13 2b bb
       -0.08157118 0.145147 -0.04660284 -0.0026103975
000380 1e d0 a8 bc 90 46 79 3c d4 dc 8e bd 43 d7 04 3e
       -0.02060705 0.015214577 -0.06975713 0.12972741
000390 2b 34 1a be 03 77 15 be c1 93 01 bc c9 80 4e 3c
       -0.15058963 -0.1459618 -0.007908762 0.012603947
0003a0 8a 9b 53 be 46 de 14 3d cb 46 37 3d 9b a3 95 3d
       -0.20664802 0.03634479 0.044745248 0.07306596
0003b0 69 3c 2d bd d1 75 96 3c 10 27 3e 3e 89 ff d7 bd
       -0.04229394 0.018366726 0.18569589 -0.10546786
0003c0 ab 1b f8 3d a8 b3 94 3e 8e 8e 83 be 9f 14 94 3e
       0.12114652 0.29043317 -0.25694698 0.28921983
0003d0 19 29 36 be ae b9 7a 3e 8f dc 15 be 37 53 7e be
       -0.17789115 0.24484894 -0.14634918 -0.24836431
0003e0 74 9d ba bc 5f 0f d2 bd 7f 32 1a be d2 ed a5 bc
       -0.022780158 -0.10256838 -0.15058325 -0.020255003
0003f0 00 76 31 be 2c c8 2b 3d e4 f8 ab 3d a5 d4 3c 3e
       -0.1733017 0.041938946 0.083970815 0.18440492

weight f4 [200]
000000 00 2e 75 3f 1d b2 80 3f d9 22 7f 3f 59 ef 84 3f
       0.95773315 1.0054356 0.9966255 1.0385543
000010 ba c9 81 3f df 62 7b 3f 9d 5e 82 3f 08 d3 75 3f
       1.0139687 0.9819774 1.0185124 0.96025133
000020 7b 28 80 3f 03 30 79 3f 1a c5 7d 3f 81 fd 7e 3f
       1.0012354 0.97338885 0.9912888 0.99605566
000030 93 4c 7c 3f 56 77 80 3f c8 2a 81 3f bd 55 82 3f
       0.98554343 1.0036418 1.0091181 1.0182415
000040 49 1e 81 3f a7 72 82 3f a3 a7 7e 3f 91 d5 79 3f
       1.0087367 1.0191239 0.99474543 0.975915
000050 86 02 78 3f cc bf 7e 3f 62 ed 81 3f 78 16 83 3f
       0.9687885 0.9951141 1.0150568 1.0241232
000060 57 9d 7d 3f 5a d5 80 3f 98 6f 7c 3f 99 12 81 3f
       0.99068207 1.006511 0.9860778 1.00838
000070 e2 19 68 3f 05 c6 80 3f b0 4d 81 3f 39 ff 80 3f
       0.90664494 1.0060431 1.0101833 1.0077888
000080 11 e7 78 3f fe 96 84 3f ca ef 81 3f ae 39 7b 3f
       0.9722758 1.0358579 1.0151303 0.9813489
000090 1e 70 81 3f 84 fd 7c 3f f2 c2 81 3f bd 15 82 3f
       1.011234 0.98824334 1.0137618 1.0162884
0000a0 64 8e 81 3f 3a 2b 81 3f b0 79 76 3f 4b 27 81 3f
       1.0121579 1.0091317 0.9627943 1.0090116
0000b0 6c 8c 82 3f c9 7b 80 3f 8d 63 7f 3f ff 91 73 3f
       1.0199103 1.0037776 0.9976128 0.9514465
0000c0 05 c8 7e 3f 02 59 80 3f 0b c4 82 3f ee 03 7a 3f
       0.99523956 1.0027163 1.0216078 0.97662246
0000d0 17 15 82 3f 1b 41 81 3f 7a 9e 7b 3f df bb 81 3f
       1.0162686 1.0097994 0.9828869 1.0135459
0000e0 ed 64 84 3f 24 b7 85 3f c0 7d 6a 3f 0e c9 80 3f
       1.03433 1.0446515 0.9159813 1.0061357
0000f0 9b de 77 3f 4f 7a 7f 3f bb 97 80 3f bf 52 83 3f
       0.96824044 0.99796003 1.0046304 1.0259627
000100 f0 ee 81 3f f2 88 83 3f ae 9a 81 3f 5e da 84 3f
       1.0151043 1.0276167 1.012533 1.037914
000110 0e f6 7f 3f bd 2a 7e 3f 7a bd 7e 3f 6c ee 84 3f
       0.99984825 0.99283963 0.9950787 1.038526
000120 0c a9 80 3f 68 f1 7e 3f 63 4f 88 3f 0f 53 82 3f
       1.0051589 0.99587107 1.0649227 1.0181597
000130 86 62 7a 3f 52 6c 7a 3f 28 23 81 3f cc 70 83 3f
       0.97806585 0.97821534 1.0088854 1.0268798
000140 ab 71 87 3f fd 1c 82 3f 15 2b 71 3f fc ea 86 3f
       1.0581564 1.0165097 0.9420636 1.0540462
000150 bd 73 85 3f 15 04 71 3f 1e 19 81 3f 07 84 7e 3f
       1.0425946 0.94146854 1.008579 0.9942021
000160 e1 d1 82 3f ab 7d 80 3f 08 1e 7e 3f 90 07 88 3f
       1.02203 1.0038351 0.99264574 1.0627308
000170 23 f9 80 3f 48 42 7c 3f 4f ee 80 3f b0 2c 80 3f
       1.007603 0.9853864 1.0072726 1.0013638
000180 a5 da 85 3f 91 49 7f 3f 8f 0e 83 3f 13 50 75 3f
       1.045735 0.9972163 1.0238818 0.9582531
000190 cb 3f 7b 3f 7d 6d 80 3f 64 8b 82 3f 9a 81 82 3f
       0.98144215 1.0033413 1.0198789 1.0195801
0001a0 0e de 74 3f 18 c9 7f 3f 82 b1 79 3f 20 85 77 3f
       0.9565133 0.9991622 0.9753648 0.9668751
0001b0 b3 25 76 3f df ee 7a 3f 67 b0 79 3f 9a e7 83 3f
       0.96151274 0.9802074 0.97534794 1.0305054
0001c0 4e c9 7b 3f 08 1a 7e 3f 57 a6 80 3f 50 90 7d 3f
       0.9835404 0.9925847 1.0050763 0.9904833
0001d0 cf da 77 3f e6 15 72 3f cc 34 71 3f b8 9f 82 3f
       0.9681825 0.94564664 0.94221187 1.0204992
0001e0 d3 cc 80 3f 3c 08 7b 3f 31 6f 7d 3f 47 fe 84 3f
       1.0062507 0.9805944 0.9899779 1.0390099
0001f0 f8 23 7e 3f 93 d6 83 3f ec 38 80 3f 1a 5b 82 3f
       0.99273634 1.0299858 1.0017371 1.0184052
000200 ae c2 71 3f b3 4a 81 3f 81 32 80 3f 2e b0 86 3f
       0.9443768 1.0100921 1.0015413 1.0522516
000210 5b 40 84 3f 5e 5a 7b 3f c7 0c 82 3f 2b 0c 78 3f
       1.033214 0.98184764 1.0160149 0.96893567
000220 f3 7f 84 3f fc 75 80 3f aa 8b 80 3f 95 cf 80 3f
       1.0351547 1.0036006 1.0042622 1.0063349
000230 18 87 7e 3f 99 89 85 3f 6f 85 82 3f 21 91 80 3f
       0.99424887 1.0432616 1.0196971 1.004429
000240 b5 4f 70 3f 41 4a 87 3f d9 11 84 3f f4 e7 83 3f
       0.93871623 1.0569535 1.0317947 1.0305161
000250 3a f1 7c 3f 0a 83 69 3f 6c a5 84 3f a2 da 83 3f
       0.9880558 0.91215575 1.0362983 1.0301096
000260 a8 3c 85 3f 27 e1 87 3f 03 2f 87 3f 03 9d 89 3f
       1.0409136 1.0615586 1.0561222 1.0751041
000270 01 55 7a 3f 69 35 81 3f d9 19 7f 3f 5b 88 82 3f
       0.97785956 1.0094424 0.99648815 1.0197862
000280 37 3d 7d 3f 5a 5a 7d 3f 24 7a 80 3f 56 d5 87 3f
       0.9892153 0.9896599 1.0037274 1.061198
000290 d3 14 7d 3f 4a a8 79 3f a5 6f 79 3f a8 45 76 3f
       0.988599 0.97522414 0.9743598 0.96200037
0002a0 5b 86 81 3f 31 91 81 3f 35 80 76 3f f2 c5 82 3f
       1.0119127 1.0122434 0.9628938 1.0216658
0002b0 b2 fc 7a 3f 39 9d 83 3f e0 57 78 3f eb 7b 76 3f
       0.9804183 1.0282356 0.97009087 0.96282834
0002c0 da 98 7c 3f 8b ed 81 3f 25 4a 7e 3f be b9 81 3f
       0.9867073 1.0150617 0.99331886 1.0134809
0002d0 6f f1 7f 3f 62 b4 82 3f 7b 03 77 3f 6d a6 80 3f
       0.99977773 1.0211298 0.96489686 1.0050789
0002e0 dc 18 76 3f 8c 21 75 3f 8e 1f 7f 3f 7b 1c 83 3f
       0.9613168 0.95754313 0.99657524 1.0243067
0002f0 55 81 82 3f ba a6 80 3f ec 80 77 3f 6f e7 7f 3f
       1.0195719 1.0050881 0.96681094 0.99962515
000300 95 61 65 3f 8e cf 81 3f c9 21 7e 3f 83 4c 7f 3f
       0.89602023 1.0141466 0.992703 0.9972612
000310 18 7e 78 3f 4c 23 80 3f d6 ce 84 3f 93 46 81 3f
       0.97067404 1.0010772 1.0375621 1.0099663

bias f4 [200]
000000 d6 85 90 3c b7 b3 25 bd 4c b9 08 bb 2f 31 8f 3a
       0.017641943 -0.040454593 -0.0020862399 0.0010924692
000010 4b 22 f9 3b 7f 8b 8c bb 7b df 0b 3d 7e 17 0e 3c
       0.007602965 -0.00428909 0.034148674 0.008672593
000020 ef 11 95 3b be 05 01 3d 45 d6 9b bc 31 58 dd bc
       0.004549257 0.031499617 -0.01902307 -0.027019592
000030 59 04 a7 bc 0d 87 c4 bc 07 ef 76 3c 0b 2a 3c 3d
       -0.020387815 -0.023990178 0.015071637 0.045938533
000040 10 77 bc bc 19 b3 0d bc 90 eb 93 3c f1 e0 6c bc
       -0.023005992 -0.008648657 0.01805666 -0.014457927
000050 0d 7a 6c bc 83 64 ad bd 5d 3e 34 bc c4 0d 46 3c
       -0.014433396 -0.08466437 -0.011001197 0.012088243
000060 e9 15 4e 3c f8 2f 3d bc 3e 88 3f bb 53 05 d0 bc
       0.012578466 -0.011547081 -0.0029225494 -0.025393164
000070 51 a6 df 3c 60 d6 9a bc 92 57 b7 3c c4 df 66 bd
       0.027300986 -0.01890105 0.022380624 -0.056365743
000080 ad 30 d3 bc 10 f5 53 bc fa 6a a6 bc b1 3d 98 bc
       -0.025780046 -0.012936845 -0.020314682 -0.018584104
000090 54 af c3 3c 92 00 17 bc 1e 26 d8 3c 4e e0 f8 bc
       0.023887314 -0.009216445 0.026385363 -0.030380394
0000a0 c6 0c 95 bc d8 29 69 3c fd 5f 88 3c d8 b2 87 bc
       -0.018194567 0.014231168 0.016647333 -0.016564772
0000b0 3c df 8a bd 9c 75 dd bc 1e 11 0b bd d8 01 1f 3d
       -0.0678086 -0.02703362 -0.03395187 0.038820118
0000c0 96 55 89 3c d7 d1 97 bd fc b2 06 bd 7b a5 95 bc
       0.016764443 -0.07413071 -0.032885537 -0.018267384
0000d0 78 90 4a 3b e7 4c ac bc 52 5f 5b 3c 5f 0e d6 bc
       0.0030908864 -0.021032764 0.013389425 -0.0261299
0000e0 0c a8 cd 3b a8 42 2a 3d 81 11 74 3d 88 a9 6e bc
       0.0062761363 0.041567475 0.059587006 -0.014566787
0000f0 03 21 94 3c 01 a6 be 3c e4 7c 33 3d 87 ff d0 3c
       0.018082147 0.023272516 0.043820277 0.02551247
000100 9e 1e 39 bc c8 1d a6 3c d9 88 0a 3d 4b 9d 7d bd
       -0.011298804 0.020277873 0.033821914 -0.061917584
000110 9e 27 69 3b 33 24 6f 3a cd e3 06 bb ad fe 1b bc
       0.0035576592 0.00091225206 -0.0020582557 -0.009521169
000120 6d cb 88 bb 3d 1d 07 3c 03 1d 04 bd 23 ab c1 bc
       -0.004174641 0.008246717 -0.03225423 -0.023641175
000130 c5 7c b0 bc ff 77 ca bb 65 01 ae bc 27 2c 7d bd
       -0.02154387 -0.0061788554 -0.0212409 -0.061809685
000140 b8 dc 03 bd 8e d3 b3 3b 8a c1 16 3c ff 64 1d 3d
       -0.032192916 0.005487866 0.009201417 0.038426396
000150 d6 2e d6 bc b9 2a a5 3c 26 7d 2e 3d 08 42 05 bc
       -0.02614538 0.020161973 0.04259982 -0.008133419
000160 57 1f c0 bc c2 0a a9 bc d9 b5 21 3d 46 e7 d2 bb
       -0.023452444 -0.020635013 0.039480064 -0.0064362613
000170 06 54 c8 3b 32 12 e7 3b ed ad 1e 3c b9 52 13 bc
       0.006113532 0.0070517296 0.009685022 -0.008991891
000180 99 7d 1e bd e5 8e 26 3d 4e f2 a9 3c 79 25 4d 3d
       -0.038693998 0.04066362 0.020745423 0.050084565
000190 a7 63 1b bd 28 75 03 3d 1e 78 3a bd 24 d7 cd 3c
       -0.037936833 0.03209415 -0.04552471 0.025127001
0001a0 1c 54 73 bc 96 7d 01 bd d4 ea f3 bc 0e 6d cf bb
       -0.014851596 -0.03161391 -0.02977506 -0.006330139
0001b0 58 06 aa 3c 79 00 e3 bc cd cc 14 3c a5 2b 5d bd
       0.020754978 -0.027710186 0.009082031 -0.0539967
0001c0 38 2e 6c bd 19 30 04 bd f6 82 01 3d 4e 37 64 bc
       -0.057661265 -0.032272432 0.031619035 -0.013929201
0001d0 5e 28 dd 3c 89 cf a0 3d f0 40 26 3c 29 9c c5 3c
       0.026996788 0.07852084 0.010147318 0.024122315
0001e0 a0 a9 a0 bc 3b a1 1a bd a3 dc 18 3d 6e a8 f3 3c
       -0.019612134 -0.037751418 0.03731979 0.0297434
0001f0 93 76 3e 3c 26 d0 91 3c c3 6e e1 3c f3 64 ca bc
       0.01162495 0.017799448 0.027518636 -0.02470634
000200 7f d7 98 b9 11 4c 03 bd e3 8e 33 3c f6 2a 6a 3c
       -0.00029152256 -0.032054964 0.01095936 0.014292469
000210 e0 10 23 bd b8 88 5c 3c fe 96 31 3c 39 fa 5c 3a
       -0.039811015 0.013460331 0.010839222 0.000842962
000220 c9 13 2b 3c 06 c9 bf bb f7 0b bb bb ad a5 ee ba
       0.010441729 -0.0058528213 -0.0057082134 -0.0018207334
000230 90 53 cd bc 44 66 6f bd a6 9e c4 3b c7 e6 f0 3c
       -0.02506426 -0.058447137 0.0060003577 0.029406918
000240 c0 7f 43 bb 67 6c 29 bc 31 e3 8b bd 4c f4 e8 bc
       -0.0029830784 -0.010340787 -0.06830443 -0.028436802
000250 3e 80 e4 3c ef f9 d8 3c fd aa 8a 3c 97 45 59 bd
       0.027893182 0.026486365 0.016927237 -0.05304488
000260 3b 42 17 bd 58 db 43 bb 39 d7 ab 3c 4a 68 5f bc
       -0.036928397 -0.0029885378 0.02097665 -0.013635704
000270 4f 92 b7 3b a6 b8 56 3c ff e9 ca 3c 2a fb 4e 3d
       0.005602158 0.013105547 0.024769781 0.050532497
000280 9b 25 9c 3a b9 1f ad 3c 9c c2 64 bd c7 9c b6 bd
       0.0011913063 0.02113329 -0.055849656 -0.08916622
000290 69 7b f6 bb 7a 09 0c bd 9b d8 98 3c 2c 9c 0e 3d
       -0.007522036 -0.034188725 0.018657973 0.034816906
0002a0 df 62 bc 3b a4 e2 78 3d 93 05 7e bc d2 3a ae 3c
       0.005749091 0.060763016 -0.015504259 0.021268282
0002b0 20 88 a6 3c 65 bf 48 bc c2 a2 d9 3c 4b 2f 0a 3b
       0.020328581 -0.012252663 0.026566867 0.0021085318
0002c0 0d be 96 39 9d 69 12 bd 6c 61 d3 3c 0b 10 39 bd
       0.00028751828 -0.035745252 0.02580329 -0.045181315
0002d0 b9 0e 8e bb c0 5d 8d bd f5 77 0f bd 49 a1 6e 3a
       -0.004335251 -0.06902647 -0.03502651 0.0009103013
0002e0 e4 e0 2c bc ce 99 4f bd a4 c5 21 bc b3 65 fd bb
       -0.010551665 -0.05068379 -0.009873781 -0.0077330708
0002f0 9e e5 26 bc db 0e 16 bc d1 c5 07 bc dc 6a 98 3d
       -0.010186581 -0.009158815 -0.008286909 0.07442257
000300 45 a3 e8 3c 6f ea 3b 3d 99 b9 45 bc 6e ed 21 bd
       0.028398165 0.04587787 -0.012068176 -0.03953307
000310 5f 6b 11 3d 24 b3 ce ba 71 e7 99 3b 5f 67 eb bb
       0.035502788 -0.0015769941 0.0046967794 -0.0071839537

running_mean f4 [200]
000000 19 a1 9c 3d 44 f0 04 3d ea 9b bf 3d 5b 28 54 3d
       0.076479144 0.032455698 0.0935591 0.0517963
000010 d6 2b db 3d 67 22 c5 3d b3 c6 4b 3c 23 25 9b 3d
       0.107017204 0.09625702 0.01243751 0.07575443
000020 52 8c 01 3e 74 67 fe 3c 11 82 cb 3d 7e b1 4a 3d
       0.12651184 0.03105519 0.099369176 0.049485676
000030 60 6e 91 3d bf 59 f0 3c f7 87 dd 3c 58 c2 2e 3d
       0.071011305 0.02933967 0.027042372 0.04266581
000040 19 e9 9d 3c 08 47 b2 3d 56 ba 16 3d 34 01 b2 3d
       0.019276189 0.087049544 0.036798798 0.08691636
000050 34 0f d2 3d e4 26 4f 3d fc c5 16 3d 05 49 20 3d
       0.10256806 0.0505742 0.036809906 0.039132137
000060 3b 0b 86 3d 48 43 52 3c 36 f6 cd 3d 7c 0b 8e 3d
       0.06545111 0.012833424 0.10056727 0.06935784
000070 16 7f 04 3e 44 1a 4c 3d 31 14 65 3d 7e 80 90 3d
       0.12939104 0.049829736 0.05592746 0.07055758
000080 0c 52 a2 3d 7a 14 c6 3d 0c 02 cb 3d ee 11 68 3d
       0.079258054 0.09671874 0.099125 0.056657724
000090 03 69 ba 3d 30 50 7a 3d 1e ab 4c 3e 11 2b 83 3c
       0.09102061 0.06111163 0.19987151 0.016011747
0000a0 1a 1a 0e 3d 3a c7 3f 3d f1 da 27 3d bc fc 0e 3d
       0.03469286 0.046820857 0.040980283 0.034908995
0000b0 f8 57 aa 3c d1 6e 97 3d 6a 0e 6d 3d a0 17 a3 3c
       0.0207939 0.073941834 0.057875074 0.019908726
0000c0 86 ec 0f 3d a0 74 6d 3d b2 c5 e3 3c a6 f7 d4 3c
       0.035137676 0.05797255 0.02780423 0.025996994
0000d0 e2 94 c9 3c 0c 9b cd 3d 04 85 80 3d 39 7c 32 3c
       0.024607126 0.100393385 0.06275371 0.010893875
0000e0 a5 d8 22 3e 06 c6 28 3e c1 96 78 3d 82 6d 9e 3c
       0.15902956 0.1648179 0.060690645 0.019339327
0000f0 5e 4a f6 3d 81 10 75 3d 20 fd 0f 3e ed 1a 8b 3d
       0.12025903 0.059830192 0.14061403 0.06792245
000100 ba 91 ec 3d ce 72 67 3d 54 4a 1b 3e c9 1b ec 3b
       0.11551233 0.05650597 0.15165073 0.0072054607
000110 16 e9 91 3d 10 3f 65 3d 5d 0c 81 3c 88 7a 15 3e
       0.07124536 0.055968344 0.015752966 0.14597523
000120 6a af ed 3d 50 b3 2e 3d c4 e2 07 3d 25 85 f7 3d
       0.11605723 0.042651474 0.033175245 0.12085942
000130 f6 49 b9 3d 07 5a 14 3e 14 92 45 3d f3 66 07 3c
       0.0904731 0.14487468 0.048235014 0.008264291
000140 41 42 96 3d 3e 78 4e 3d de e3 73 3d 34 6e 80 3d
       0.07336856 0.05040764 0.059543483 0.062710196
000150 0d c1 ed 3d 0d 00 39 3d fa e8 36 3d a0 61 96 3d
       0.11609087 0.045166064 0.044655778 0.07342839
000160 e8 a0 22 3d 9b 67 95 3d 7d 9d 87 3c 05 17 5d 3d
       0.039704233 0.07295152 0.016554588 0.05397703
000170 dd 69 8a 3d 41 80 4f 3d 1b e4 57 3d e2 33 33 3d
       0.06758473 0.05065942 0.052707773 0.04375065
000180 e6 47 c2 3d 72 97 d4 3d e1 5d c5 3d 56 57 9d 3d
       0.0948637 0.103804484 0.096370466 0.07682674
000190 34 59 6a 3d a1 d6 f1 3d 8f b3 89 3d 78 03 c0 3d
       0.057213977 0.11808515 0.06723701 0.093756616
0001a0 ac 69 56 3d a6 d0 f2 3d ee 82 ca 3d e6 b9 ae 3d
       0.05234687 0.11856203 0.09888254 0.08531551
0001b0 f4 82 d0 3d 1d db 69 3d 24 1b 06 3e ca 31 7c 3d
       0.10181227 0.05709373 0.13096291 0.06157092
0001c0 aa f0 6f 3d 20 f8 62 3c 94 96 6c 3d 34 de f3 3c
       0.058579125 0.013853103 0.05776079 0.02976904
0001d0 59 39 11 3e 64 c3 a6 3d 12 1e 09 3e ce 7d 3c 3d
       0.14182033 0.081427366 0.13390377 0.046018414
0001e0 66 19 ac 3d 9e c5 da 3c bc 4f 43 3d 3c 78 f2 3d
       0.08403282 0.02670556 0.047683463 0.11839339
0001f0 b9 6b 67 3d 90 db 0c 3d b4 19 26 3e cf ce 7d 3d
       0.056499217 0.03438908 0.16220742 0.061964806
000200 57 19 af 3d 31 35 da 3d 09 ce 9b 3c b0 36 b6 3b
       0.08549755 0.10654677 0.019019144 0.0055607185
000210 36 a7 6e 3d e0 1f 64 3d de 4f 86 3d c1 57 b4 3b
       0.058264934 0.05569446 0.06558202 0.005503625
000220 94 20 a5 3d fb 01 de 3d 35 b7 dd 3d 7a ee d6 3d
       0.080628544 0.108402215 0.108259596 0.104947045
000230 7c d5 23 3d 41 ad 40 3d f2 25 61 3d 42 54 69 3d
       0.039998516 0.047040228 0.054967828 0.05696512
000240 b8 32 8d 3d 24 26 49 3d 63 ca 08 3c cf b8 c0 3d
       0.068944395 0.04910864 0.008349034 0.094102494
000250 1a 61 88 3d 9c 54 d7 3d a2 df 6e 3c 83 7a 99 3d
       0.06659146 0.10514185 0.014579685 0.074940704
000260 6c 64 d9 3d 39 c6 36 3d a2 a2 46 3d 8e 0f f3 3c
       0.10614857 0.044622634 0.048494942 0.029670503
000270 74 f5 c6 3d 52 ba 8d 3d fc 30 76 3d b3 47 04 3e
       0.09714785 0.069203034 0.06010531 0.12917976
000280 4c cb c5 3d 37 39 2d 3e f5 fd 13 3d b1 d8 a4 3d
       0.096579164 0.16916357 0.036130864 0.08049143
000290 f7 de 8e 3d 63 77 93 3d d1 0c f1 3d 1a 5d 6c 3d
       0.06976121 0.072005056 0.11770023 0.057705976
0002a0 78 67 78 3d 28 53 36 3d 4a 16 13 3d ce 8a d1 3d
       0.06064555 0.044512898 0.03590993 0.10231553
0002b0 00 cd 8d 3d 52 ff e8 3c ca 31 91 3d ec 45 5d 3d
       0.06923866 0.028442059 0.07089575 0.05402176
0002c0 68 e9 cb 3d 5d 5c 8f 3d 64 dc c8 3d ef ee 88 3d
       0.09956628 0.07000039 0.09807661 0.06686198
0002d0 1d df c6 3d 92 cb 80 3d 50 0e b8 3c 98 59 01 3d
       0.09710524 0.06288828 0.022467762 0.031579584
0002e0 9c 21 45 3d cd 94 df 3d 7a 03 7c 3d e6 45 a6 3d
       0.048127756 0.10917053 0.061526753 0.08118801
0002f0 ad 1d 1a 3d f8 04 da 3d 0e 31 c2 3d 58 a4 92 3d
       0.037625957 0.10645479 0.09482013 0.07160252
000300 88 45 28 3d e2 b9 55 3e 30 72 8c 3d 14 fa d0 3d
       0.041081935 0.2087169 0.06857717 0.102039486
000310 9d 08 8c 3c ba ed b0 3d 12 22 a1 3d 26 5b 20 3e
       0.01709395 0.08639093 0.078678265 0.1565977

running_var f4 [200]
000000 07 cf c5 3c 0c 73 08 3c 89 f7 24 3d ac 6e 55 3c
       0.02414657 0.008328211 0.04027513 0.0130268745
000010 13 7c 46 3d 21 ae 48 3c a4 b6 46 3a 5c 7b 82 3c
       0.04845817 0.012248547 0.0007580316 0.015927963
000020 fb f6 a5 3b 94 e0 f1 3a 75 60 6b 3c 9d 37 5c 3c
       0.0050648428 0.001845377 0.014366259 0.013440994
000030 ac f8 be 3c fb 28 41 3b c9 05 d7 3b 23 58 9b 3b
       0.023311935 0.002947389 0.006561969 0.0047407313
000040 91 e6 a6 3b 20 92 24 3c 8f 0c 18 3c d0 e0 24 3d
       0.0050934036 0.010044605 0.009280338 0.04025346
000050 b1 62 6d 3c 2b 55 c1 3b 9f fa 41 3b ed 5b 12 3b
       0.014488862 0.0059000454 0.0029598845 0.0022332624
000060 40 a3 d3 3c f7 85 7f 3b 71 20 ed 3b ae f6 73 3c
       0.02583468 0.0038989761 0.0072365333 0.014890356
000070 cc 5e 00 3d e2 05 38 3b 62 e4 4a 3c 5a 75 9a 3b
       0.031340405 0.0028079678 0.012383552 0.0047136964
000080 31 60 16 3d 28 b6 44 3d 66 d8 4b 3d cd 85 d8 3b
       0.03671283 0.04802528 0.04976692 0.006607747
000090 6b 03 51 3c f4 63 93 3c 3c 7f 54 3d f9 38 b2 3b
       0.012757163 0.017991997 0.051879153 0.0054389206
0000a0 6f ca 04 3c ea 3d 11 3c cb fb 82 3b e0 b5 80 3b
       0.008104905 0.008864859 0.003997301 0.003927931
0000b0 44 c4 82 3b db 55 d7 3c eb 65 b4 3c 3c 30 9c 3a
       0.003990682 0.026286056 0.022021255 0.001191623
0000c0 a7 42 20 3c 92 4b 70 3c 9e fc 1b 3c d5 ad f4 3b
       0.009781516 0.014666455 0.009520678 0.0074670115
0000d0 36 0f ce 3b e5 a0 35 3d cb df 4c 3b eb 7a 4c 3a
       0.0062884344 0.044342894 0.003126132 0.00078002986
0000e0 4d 3c 38 3d 7c 6d 4a 3d f3 de b9 3c 8e 44 a4 3a
       0.044979382 0.04942082 0.022689318 0.0012532638
0000f0 3e ba ed 3b 36 aa b0 3c f6 04 0e 3d 6c b8 58 3b
       0.007254868 0.021565538 0.0346727 0.0033068908
000100 30 b8 bf 3c 80 ea 98 3c 36 9e 07 3d 48 1e c3 3a
       0.023403257 0.018666506 0.033109866 0.0014886344
000110 52 b1 00 3d 1d a0 78 3c 5e 53 37 3b 7a 24 20 3d
       0.031419106 0.015174893 0.0027973275 0.039097287
000120 d8 e8 4f 3c e8 ef 15 3c 15 99 fb 3b a7 ab fd 3c
       0.012689792 0.009151436 0.007678161 0.03096564
000130 0b 6b da 3c c0 f4 59 3c b5 13 8c 3c 2d db af 3a
       0.02666237 0.013302982 0.01709924 0.001341676
000140 cc 08 fa 3c 46 00 de 3b ab 98 48 3b 30 49 6b 3c
       0.030521773 0.006774935 0.0030608575 0.014360711
000150 e9 d7 d7 3c c7 45 3d 3b ed f8 20 3b b4 52 91 3c
       0.026348071 0.0028880702 0.0024562434 0.017739631
000160 8a 27 f2 3a 55 a8 85 3c 73 03 0c 3b 75 11 38 3b
       0.0018474918 0.016315619 0.002136436 0.0028086577
000170 6d a5 0f 3c c3 3a 49 3c 6a 5a 2d 3b b7 90 18 3c
       0.008767468 0.012282076 0.0026451596 0.009311846
000180 e7 e0 52 3d 06 21 5b 3c 39 18 0b 3c bf a4 c6 3b
       0.051484015 0.013374573 0.008489662 0.0060621197
000190 52 30 57 3c 1d c2 79 3d 50 c4 12 3c 3d b3 8d 3c
       0.013134079 0.060976136 0.008957937 0.017297382
0001a0 87 58 8f 3b 94 a8 14 3d 88 52 40 3d 01 08 bd 3c
       0.004374567 0.03629358 0.046953708 0.023075106
0001b0 8c 69 05 3d 40 bd 08 3c 0c a8 61 3c 11 5a ad 3c
       0.03257136 0.008345902 0.013772976 0.021161111
0001c0 e1 fa 48 3c 5d 55 02 3b b0 ba 2c 3b 50 f4 e5 3b
       0.012266845 0.0019887306 0.0026356392 0.0070176497
0001d0 3f fb 5f 3c 44 54 8a 3c 45 6a 2c 3c 93 8c 0a 3c
       0.013670742 0.016885884 0.0105233835 0.008456367
0001e0 f4 b0 c7 3b 7d 82 ae 3b b4 6d 18 3c b7 5a 15 3c
       0.0060940925 0.005325614 0.009303499 0.009115866
0001f0 99 fb b4 3c 64 c2 bb 3b cd d1 b9 3c 59 bd a8 3c
       0.022092627 0.0057299603 0.022683049 0.0205981
000200 91 d2 f4 3b b3 f5 17 3d cf 30 6f 3b 9f 21 05 3a
       0.0074713905 0.03709955 0.0036497598 0.00050785573
000210 00 5a d4 3b 69 94 ed 3b f9 67 bb 3c 38 b4 b2 39
       0.0064804554 0.007250358 0.022876726 0.0003408508
000220 db 8e 5f 3c f5 fc 7e 3d 6e 8a 54 3d 24 d8 66 3c
       0.013644899 0.062252957 0.05188983 0.014089618
000230 f3 66 f3 3b 59 f8 88 3c d3 03 3f 3c a6 71 90 3c
       0.007428044 0.016719984 0.011658627 0.017632317
000240 e9 35 ce 3c f2 46 ac 3c ad 56 bc 3a dc 48 45 3d
       0.02517219 0.021029923 0.0014369093 0.048165187
000250 2b 62 51 3c 41 0d cf 3b d1 9e 69 3a 63 e9 e1 3c
       0.012779753 0.0063187187 0.000891191 0.027577108
000260 84 63 66 3d f7 4d 3c 3c 5c bb 74 3c 9b f8 02 3c
       0.05624725 0.011493198 0.014937248 0.0079938425
000270 ef e2 73 3c e7 c1 97 3b ee 35 bb 3c 03 a4 6f 3c
       0.014885648 0.0046312693 0.022852864 0.014626506
000280 70 6f dc 3c 6c 61 8a 3c 8c a0 1a 3c 4b 4f 0a 3d
       0.026908606 0.016892157 0.009437691 0.033767026
000290 56 53 b6 3c cb e7 81 3c a6 d7 d6 3c fa c9 a6 3c
       0.022256535 0.015857598 0.026225876 0.020359982
0002a0 ad 39 5a 3c b6 96 9b 3b 5a ed 13 3c 97 d5 56 3d
       0.013319415 0.0047481908 0.009028757 0.05244979
0002b0 05 0b bb 3c 40 7b da 3b 17 e7 c0 3b 97 cc e3 3b
       0.022832403 0.0066675246 0.005886923 0.0069518792
0002c0 c8 52 c2 3b 79 25 ef 3c 32 64 eb 3b 00 4e 83 3c
       0.0059302785 0.029192673 0.007183575 0.016028404
0002d0 d0 2e f1 3b 4a a4 60 3b 2f fb f7 3a c9 a9 ea 3b
       0.007360317 0.0034277611 0.0018919463 0.0071613532
0002e0 3a f0 3e 3b 24 1d 33 3c f7 49 fc 3b 17 13 11 3d
       0.0029134885 0.010932241 0.007699247 0.035418596
0002f0 c9 3a 08 3c 40 4e 7b 3d 5c 2a 56 3c 0c 2f a0 3b
       0.008314797 0.061353922 0.013071623 0.004888421
000300 e0 e5 53 3b 30 7f 21 3d 7d 60 90 3c d6 3e cf 3c
       0.003233306 0.039427936 0.017624134 0.025298517
000310 bf 8a 18 3b 1d 9b a5 3b eb 9e 5b 3c 4a 07 61 3d
       0.0023276058 0.0050538913 0.013404588 0.054938592

weight f4 [100, 200]
000000 ec f9 b6 bd ac 46 9e ba e6 fc 31 3d fa 3a b9 bb
       -0.089343876 -0.0012075505 0.043454073 -0.0056527825
000010 b3 a4 14 bd 5e 42 f1 3b 5a 71 a4 3d f8 af a1 3d
       -0.036289882 0.007362648 0.080294326 0.078948915
000020 c6 3e 60 bc b2 e6 0f bd bb db f0 3d db 9c 0f bd
       -0.013686841 -0.035132118 0.1176066 -0.0350617
000030 2e 59 6e 3c bb c0 6e bd 1a b7 7d bc c5 f6 94 3c
       0.014547629 -0.05828927 -0.015485549 0.018184075
000040 bd 05 18 3d ce 3e fe bc e5 f2 6c 3d be 2e 1b 3d
       0.037114847 -0.031035807 0.05784883 0.037886374
000050 27 ff a7 bd 23 e3 ac 3c 5b ee 3e bd da 5e 7d bd
       -0.08202963 0.021104401 -0.046614032 -0.061858036
000060 f2 e6 05 3d 63 a5 73 3d be fb 33 bd 77 d1 b0 ba
       0.03269095 0.059483897 -0.043941252 -0.001349016
000070 55 e5 3c 3c bd 67 8b 3d 6c 20 ef 3d 4a 7b 17 bd
       0.011529286 0.06806896 0.11676106 -0.036982812
000080 c6 29 34 3b ee 8c 11 bd c2 62 3f 3d 46 ce 9f bd
       0.002749072 -0.03553479 0.046725042 -0.078030154
000090 10 19 d9 3d a9 4a 6a 3d a2 f2 41 3d 4d 10 f1 b7
       0.106004834 0.057200108 0.047350533 -2.873703e-05
0000a0 56 50 f2 bc 34 41 57 3d 78 36 ce 3d d3 5b ad 3b
       -0.029579323 0.052552417 0.10068983 0.0052904873
0000b0 0a 89 11 3a 7c 43 88 bd 3d 1e 0e 3d 8e 1b e5 3b
       0.00055517314 -0.066534966 0.034696806 0.00699181
0000c0 9a 76 25 bc ad 82 97 3d d0 47 16 3d 99 c4 c0 3d
       -0.010099078 0.07397971 0.03668958 0.09412498
0000d0 38 53 01 3d 44 ef 37 bb 4e 50 3e 3c a3 23 05 bd
       0.031573504 -0.0028066197 0.011615826 -0.03250469
0000e0 c9 19 f1 3d 08 de 06 3e 6d fa a2 3b 6d 2c 24 3d
       0.11772496 0.13170636 0.0049737007 0.04008143
0000f0 82 27 a6 3d 2d 67 c4 3c ce 4c 94 3d 72 d9 62 3d
       0.08113004 0.02397498 0.07241212 0.055383153
000100 5c a7 1a bd 75 24 5c bd 0c de 4f 3d 97 d1 61 3c
       -0.037757263 -0.053745706 0.05074887 0.01378288
000110 7c 3b 9e 3d 7e f7 c8 3c f8 85 29 3d 55 60 69 3c
       0.077261895 0.024532076 0.04138753 0.014244159
000120 61 3a 23 3d ab 08 92 bb 3f 35 bb 3d 05 e7 a1 bc
       0.039850596 -0.0044565997 0.09141015 -0.019763479
000130 90 be 53 3c 21 aa e4 3d ec 41 d9 3d 37 66 80 3d
       0.012923852 0.11165262 0.10608277 0.06269496
000140 bc d0 9c bb df 08 55 bc ac 43 ad bc 1c 01 2d bd
       -0.0047856253 -0.013002603 -0.021150433 -0.042237386
000150 5c 3e a7 3c a8 de 14 bd 37 3a b2 3d a2 39 d8 3d
       0.020415477 -0.036345154 0.0870251 0.105578676
000160 9f 86 12 bc 10 97 b3 3c 6b 4b 24 3c 75 e9 92 bd
       -0.008943229 0.021922618 0.010027747 -0.07173435
000170 25 bf 11 bd 82 3a d3 bb ef 18 e5 3a b2 86 b1 3d
       -0.03558268 -0.0064461837 0.0017478744 0.08668269
000180 b0 2c 43 bd 1a 52 5d 3d 7b 62 8a 3d a3 34 cd 3c
       -0.04765004 0.054033376 0.06757065 0.025049513
000190 fe 13 3d bd 72 e8 3a 3d 88 3c 96 3d 9c 35 20 bd
       -0.046161644 0.045631833 0.07335764 -0.039113626
0001a0 07 1f 27 bd 49 cc c9 3d 80 11 3a 3d 65 36 3e bb
       -0.040801074 0.098534174 0.045426846 -0.002902412
0001b0 11 e7 3c bd 18 08 a0 bd 91 44 a3 3c 20 c2 51 bc
       -0.0461188 -0.07814044 0.019930156 -0.012802631
0001c0 08 81 b8 3c d7 49 99 bc 53 b9 4f 3d 9d dc d1 3c
       0.022522464 -0.018711967 0.05071385 0.025617892
0001d0 95 b5 16 3d e4 28 b4 3d 00 1a 85 3d fd ab 17 3d
       0.036794264 0.08796862 0.064991 0.037029255
0001e0 c4 7d 0a 3c b7 67 d0 bc dc 4c 72 3d 5a 4f 44 bd
       0.008452836 -0.02544008 0.05915533 -0.047927238
0001f0 11 e3 83 3d e0 98 9f 3d ec 69 34 bb c7 ae 37 bc
       0.06439794 0.077928305 -0.0027528955 -0.011211104
000200 68 88 80 3d fc 81 d4 bc ac 38 0c 3d 46 5a 85 3c
       0.062760174 -0.025940888 0.034233734 0.016278397
000210 8d cb ea 3d 4d da 48 3d ad e3 0c 3d 2f 78 78 3d
       0.114646055 0.049036313 0.034396816 0.06066149
000220 67 07 87 3c fa 2e 40 3d 82 bd 07 bb 2c c8 aa 3d
       0.016483022 0.0469198 -0.002071232 0.08338961
000230 e0 9c 84 3d 0a d4 96 bd 7c 81 04 3e 4e 7b c5 3b
       0.06475234 -0.07364662 0.1294002 0.006026662
000240 c9 2c 7a bc 69 59 6b 3c 29 2e 77 bd a2 f6 78 bd
       -0.015269467 0.014364579 -0.060346756 -0.060782082
000250 a5 e0 fe 3b eb 0f 9f 3d 71 13 e2 3d ee c9 b4 bd
       0.0077782446 0.07766708 0.110388644 -0.088275775
000260 8f fc 41 bd 4d 97 22 bd 5e a7 43 bc 1a 53 97 bc
       -0.04736 -0.039695073 -0.011941759 -0.018472243
000270 65 74 73 bd 60 aa 45 3d 38 7a 22 bd b1 23 6e 3d
       -0.059437174 0.048258185 -0.039667338 0.058139507
000280 f6 24 d5 3c 8a 8a 30 3d b8 e5 8c bc 3a bc 00 bc
       0.0260186 0.04310087 -0.017199382 -0.007857377
000290 fc 8c 38 3d 9c 3a 85 3c ed db 9b bc 36 7b 89 3d
       0.04505633 0.016263299 -0.019025767 0.06712954
0002a0 43 b8 97 bd 0f 5e 95 3c da fc 93 3c 1a d8 a3 bd
       -0.07408192 0.018233327 0.018064905 -0.080002025
0002b0 bb d2 50 3c ec 49 ad bd 44 8a 7a 3d 62 41 96 3d
       0.012745555 -0.08461365 0.061167017 0.073366895
0002c0 fb 01 88 3d 21 4c 39 bd 98 52 24 bd c9 6e e2 3d
       0.06641003 -0.045238618 -0.04011783 0.11056287
0002d0 d5 d2 ad 3d cb 35 ec bc f1 65 47 3d af 65 7f bd
       0.08487479 -0.028834244 0.048681203 -0.062352832
0002e0 10 3d 38 bd 1e 5e 27 bd 16 c3 9f bd 6e 50 0a 3c
       -0.04498011 -0.04086124 -0.078008816 0.0084420275
0002f0 5a fb a5 bc a2 49 9c bb 7b 2f 58 3d d6 89 68 3d
       -0.020261455 -0.00476952 0.052779656 0.056772076
000300 1f 68 17 bc 7c b5 6b 3d d8 6b 37 3d d3 e4 4a bd
       -0.009241133 0.057546124 0.044780582 -0.04953463
000310 1d 7b 68 3b d1 bb 80 3d 56 bb ca 3d 5c ba 27 bd
       0.0035473772 0.06285823 0.09899013 -0.04094921
000320 7b f1 7a 3d c1 ca b5 3c 82 d3 22 3d 4d 2f f5 3d
       0.06126545 0.022191407 0.03975249 0.119719125
000330 d1 ec 44 3d d7 91 88 bd 90 dc 41 3d 2d dd 02 bc
       0.04807741 -0.06668442 0.047329485 -0.007987303
000340 47 1c 3c 3d 63 3b f4 bc 3a 52 84 bc a5 a2 9b 3d
       0.045925405 -0.029813474 -0.01615249 0.07599381
000350 38 4c 62 3c 15 a6 c0 bb 5d df fa 3d 34 fc 4c 3d
       0.013812117 -0.0058791735 0.122496344 0.050045207
000360 cc 53 04 3e ea 59 34 3d 62 10 05 3e 2f 35 a6 3c
       0.12922591 0.04403106 0.12994531 0.020289032
000370 b6 8a 1a 3d 01 5e de 3c 1b 15 fb bc 08 e5 6c 3d
       0.03772994 0.027144434 -0.030649712 0.05783561
000380 77 e2 9f 3d b0 75 7e 3d af ef b0 3c 10 5b 8f 3d
       0.078068666 0.062123954 0.021598665 0.06999791
000390 da 7b 9d bc 52 c2 82 bb 7d 8d 4f 3d f9 c8 2f 3c
       -0.019224096 -0.00399045 0.050672043 0.010729068
0003a0 e6 61 09 bd 4a 8b 62 3d ec d9 15 3d 68 40 71 3d
       -0.03354063 0.055308618 0.03658478 0.058899313
0003b0 41 3b e8 bc 2b bf c1 3d 76 04 9f bc 6c 05 ef 3d
       -0.028348567 0.094602905 -0.019411307 0.11670956
0003c0 f6 39 a0 3d d3 04 a8 3d 71 05 94 bb a0 e3 b2 3d
       0.07823555 0.08204045 -0.00451725 0.08734822
0003d0 b8 7f c6 3c af 30 86 bc c0 6b 5f bc 0d 08 ea 3c
       0.024230823 -0.016380636 -0.013636529 0.028568292
0003e0 a9 00 b6 3d a1 12 46 3d 4a 8f cf 3d b6 39 50 3d
       0.08886845 0.04835761 0.10134752 0.050836287
0003f0 52 fd 64 3d 92 8a 85 bc 4a 5a 0f 3d 59 be 91 bc
       0.055905648 -0.016301427 0.034998216 -0.01779096

weight f4 [100]
000000 4d 5c 5d 3f 1d 30 36 3f 04 ad 2e 3f a1 d7 54 3f
       0.86468965 0.71167165 0.6823275 0.83141524
000010 56 0c 48 3f 59 64 4a 3f e5 28 2d 3f ec d6 5d 3f
       0.78143823 0.7905937 0.67640525 0.8665607
000020 60 e0 6a 3f 9b da 1f 3f 1c 7d 5f 3f f6 bb 4b 3f
       0.9174862 0.6244294 0.87300277 0.7958368
000030 70 e4 61 3f c4 85 60 3f 77 7e f9 3e 09 2a 5c 3f
       0.8823919 0.8770411 0.48729298 0.8600164
000040 9f e1 66 3f 00 01 40 3f 5b 7f 5b 3f b8 fc 0c 3f
       0.9018802 0.75001526 0.85741204 0.5507312
000050 6d 77 19 3f 17 6d 69 3f f3 49 63 3f c6 db 59 3f
       0.59947854 0.9118208 0.8878471 0.8510097
000060 0d 09 ef 3e 5a fb 6a 3f a4 0b 63 3f 35 d8 29 3f
       0.46686593 0.9178978 0.8868964 0.6634553
000070 41 62 4e 3f 28 8c 62 3f 19 e4 6d 3f c8 6c 1f 3f
       0.80618674 0.8849511 0.92926174 0.6227536
000080 9b bb ee 3e 09 47 e3 3e 6a 83 45 3f 22 fe 26 3f
       0.46627507 0.44390133 0.77153647 0.65231526
000090 7d d2 6a 3f 10 9e 5c 3f f5 6a 64 3f a5 42 11 3f
       0.9172743 0.86178684 0.89225703 0.56742316
0000a0 87 17 0f 3f 08 4d 62 3f 20 04 d5 3e d7 33 55 3f
       0.55895275 0.8839879 0.4160471 0.83282226
0000b0 3c 89 1e 3f 58 01 5b 3f ab 3f 3c 3f 93 2e 65 3f
       0.61928153 0.85548925 0.7353465 0.8952419
0000c0 63 f7 23 3f b1 b3 58 3f f9 d3 3f 3f a8 f2 07 3f
       0.6404936 0.8464919 0.7493282 0.5310464
0000d0 9e 57 b8 3e f9 2a 60 3f 46 48 42 3f 66 26 1b 3f
       0.36004347 0.8756557 0.7589153 0.60605466
0000e0 79 ee 4c 3f d3 5b 4f 3f d7 38 65 3f db 84 59 3f
       0.8005138 0.8099949 0.89539856 0.84968346
0000f0 bc 07 6e 3f f0 18 6a 3f 05 b4 68 3f 1f 38 64 3f
       0.9298055 0.914443 0.9089969 0.89148134
000100 39 eb 61 3f 09 80 4f 3f 60 64 48 3f 5a 36 59 3f
       0.88249546 0.8105474 0.7827816 0.8484856
000110 30 10 fc 3e 15 be e3 3e 34 bf 57 3f 31 2a e0 3e
       0.492311 0.4448096 0.8427613 0.4378219
000120 f6 bb 5e 3f 4e 79 57 3f 77 02 50 3f 24 05 5b 3f
       0.87005556 0.8416947 0.8125376 0.8555472
000130 39 15 5a 3f ef d4 16 3f 84 40 4d 3f 02 a2 4a 3f
       0.85188633 0.5891866 0.8017657 0.79153454
000140 3e a9 5c 3f d4 5e 66 3f c9 47 63 3f 7b 59 00 3f
       0.86195743 0.89988446 0.8878141 0.50136536
000150 61 25 17 3f d8 63 62 3f bb 68 59 3f a1 80 34 3f
       0.5904141 0.884336 0.8492543 0.7050877
000160 8a 30 fe 3e 1c 9e 25 3f c4 1e 1d 3f 91 69 65 3f
       0.49646407 0.6469438 0.6137507 0.89614207
000170 38 f5 5e 3f 9a ba 6a 3f 20 e6 41 3f 34 00 4b 3f
       0.87092924 0.9169098 0.7574177 0.79297185
000180 8f c8 59 3f fe f1 62 3f ac dd 4a 3f aa 35 59 3f
       0.85071653 0.886505 0.79244494 0.8484751

bias f4 [100]
000000 79 cb 86 bd bb b7 19 3d 9b 38 5b bd 93 d9 8c 3d
       -0.06581778 0.037528735 -0.05352078 0.068774365
000010 4e a0 17 bd e4 2a 90 3c 68 7c 9f bd 24 20 7a bd
       -0.037018113 0.017598577 -0.077874005 -0.061065808
000020 10 84 d4 3d 55 37 ce bc 70 12 41 3d 09 74 d9 3d
       0.103767514 -0.025172869 0.047136724 0.10617835
000030 a1 02 9b bd a0 8f bf 3d 5c 66 dd 3d 8a 4c 83 bd
       -0.07568861 0.09353566 0.10810539 -0.06411083
000040 40 0a a7 bd 15 22 10 be 65 bd f6 bd aa 87 71 3d
       -0.08156252 -0.14075501 -0.12047843 0.05896727
000050 1f 00 32 3e b6 ba d5 3d 04 db cb 3d e1 39 e6 3d
       0.17382859 0.10436003 0.09953883 0.11241508
000060 86 a4 a1 3d 8e d7 a7 bd f7 10 c9 3d b4 92 bf 3d
       0.078927085 -0.08195411 0.09817689 0.09354153
000070 9c a1 06 be c7 33 bd 3d ff ad b1 bd c8 31 42 bd
       -0.13147587 0.09238391 -0.08675765 -0.047410756
000080 ca 59 0d 3e e5 50 8e bd 1c 32 e1 bc d9 6a aa 3d
       0.13803783 -0.06949023 -0.027489714 0.08321161
000090 9b 82 b4 bd 63 89 aa 3d f5 cc 9a bd 61 3d a9 3d
       -0.088139735 0.08326986 -0.07558624 0.0826366
0000a0 cc 3a cb 3d a9 ac 1a 3d d7 35 53 3d 31 da 79 bd
       0.09923324 0.037762318 0.051565018 -0.0609991
0000b0 90 fb 1e 3c c1 9a c0 3d 6a ce 11 3b 44 e1 bd bd
       0.009703532 0.09404517 0.0022248277 -0.09271482
0000c0 c2 53 3c 3d 9d 57 8a bd 56 fb 83 bd d6 ef 77 3c
       0.045978315 -0.06754992 -0.06444423 0.015132865
0000d0 0d 40 27 3d 9b 53 ba bd 66 f8 be 3d af 3e fb bc
       0.040832568 -0.09097978 0.09324722 -0.030669538
0000e0 51 e8 6c bc 2c 4d 60 bd ec d0 99 bd d9 bb 75 bd
       -0.014459685 -0.054761097 -0.07510552 -0.0599936
0000f0 73 3f d5 3d 9d 5f af bd f0 fe 8b bd ae e1 92 bd
       0.104124926 -0.08563159 -0.06835735 -0.07171951
000100 97 f8 44 bd 2b c6 70 bd 09 85 4a bd 47 17 02 3d
       -0.048088636 -0.058782738 -0.04944328 0.03176048
000110 f2 c6 cc 3d 2f 03 b2 3b f1 24 ba 3d ee 49 a4 3d
       0.09998883 0.0054325084 0.09089077 0.080219135
000120 65 aa cb 3d 17 ad c4 3d dd b2 8d 3c 81 5d b1 3d
       0.099446096 0.09603327 0.017297203 0.086604126
000130 5f c8 4d 3d 29 27 4a 3d 9a 4a cb bd d8 df 25 bd
       0.050239917 0.049353752 -0.099263385 -0.040496677
000140 6a 78 ad bd bc 84 b4 3d 94 1d 87 3d 73 00 7b 3d
       -0.08470233 0.088143796 0.065974385 0.061279725
000150 9c 8e 30 3d ec e5 8f bd 7a b1 6f bd 7f 71 84 bc
       0.043104753 -0.07026276 -0.058518864 -0.0161674
000160 2e 81 f3 3d 54 9d b1 3d 9f db 7f 3b dc 85 d0 3d
       0.118898734 0.08672586 0.0039040816 0.10181782
000170 5c f2 b5 3d 89 d7 b0 bd ca 85 0d be 5e b7 c4 3d
       0.08884117 -0.0863486 -0.13820568 0.09605287
000180 2b 78 d9 3d 40 1d e0 3d 63 85 b4 bb f1 55 b6 3d
       0.10618623 0.10943079 -0.005509065 0.08903111
